checkpoint.pt (torch, 1127 bytes, 1 tensors)

weight f4 [1, 20]
000000 4c 02 bc bd a0 13 6e 3d 80 0e 2e 3e 1a 43 0b 3e
       -0.091801256 0.058124185 0.16997719 0.13599816
000010 90 76 0c bc ac a8 12 be 72 8e 5f be 00 7e 68 3d
       -0.008573189 -0.14322156 -0.21831682 0.056760788
000020 82 bb 5f 3e 2f 6c e5 bd 84 b4 f4 3d a7 3f cb bd
       0.21848872 -0.11202275 0.11948493 -0.0992425
000030 30 07 70 3d 60 c1 58 bd f7 09 30 be 9e 72 b9 bd
       0.058600605 -0.05291879 -0.17191301 -0.090550646
000040 d8 36 b4 3d c7 05 5c be 26 57 bf bd 8e ee 5c 3e
       0.08799523 -0.21486579 -0.09342794 0.21575376
